pickletronics/assets/sweet_spot_detector.tflite (tflite, 22080 bytes, 7 tensors)

sequential/dense_1/MatMul f4 [1, 32]
0.33550856 0.056677755 -0.44422302 0.38560596 0.4955128 0.45824483 0.30488732 -0.07486472
-0.37029347 -0.44291654 0.2488369 0.39168864 -0.3851172 -0.43573987 -0.47649148 -0.19110905
0.15002479 0.081744164 -0.26648012 0.21877237 -0.36770776 0.31360444 -0.27543896 -0.2358103
0.09342401 0.1136018 0.092761815 -0.3486507 0.25874346 0.21279627 -0.19983731 -0.111241676
00000000: c7c7 ab3e ef26 683d 3371 e3be 256e c53e
00000010: dbb3 fd3e 119f ea3e 311a 9c3e ad52 99bd
00000020: 1b97 bdbe f5c5 e2be 1acf 7e3e 6a8b c83e
00000030: 152e c5be 4c19 dfbe b1f6 f3be 17b2 43be
00000040: 19a0 193e 7c69 a73d 1570 88be dd05 603e
00000050: 3144 bcbe c390 a03e 5606 8dbe 4178 71be
00000060: 1655 bf3d 0fa8 e83d e8f9 bd3d 5882 b2be
00000070: 067a 843e 44e7 593e 27a2 4cbe add2 e3bd

sequential/activation_2/Relu;sequential/batch_normalization_2/batchnorm/add_1 f4 [32]
0.71996534 -2.5480683 -4.054713 -3.6532104 0.522447 -6.764301 -0.7780095 -3.9088564
5.9087653 3.973633 -5.173617 -0.5890233 3.030918 4.2840767 -2.357406 2.4468362
2.7513783 -4.7914996 2.0029838 1.396697 2.0479467 -0.8934238 3.0269442 -0.55857664
-3.5628803 -5.5766153 -2.829032 -0.82139057 -0.7012335 1.2210501 3.989087 -4.3288956
00000000: a64f 383f 8d13 23c0 35c0 81c0 33ce 69c0
00000010: 16bf 053f 2775 d8c0 a12b 47bf b42a 7ac0
00000020: 9b14 bd40 0150 7e40 458e a5c0 3bca 16bf
00000030: 8ffa 4140 2817 8940 bddf 16c0 f798 1c40
00000040: 9516 3040 f753 99c0 e330 0040 f8c6 b23f
00000050: 8f11 0340 6cb7 64bf 74b9 4140 e1fe 0ebf
00000060: 3b06 64c0 a273 b2c0 dc0e 35c0 a746 52bf
00000070: 0a84 33bf 5f4b 9c3f 344d 7f40 5086 8ac0

sequential/activation/Relu;sequential/batch_normalization/batchnorm/add_1;sequential/conv1d/Conv1D/Squeeze;sequential/batch_normalization/batchnorm/mul_1;sequential/conv1d/BiasAdd;sequential/conv1d/BiasAdd/ReadVariableOp;sequential/batch_normalization/batchnorm/mul;sequential/batch_normalization/batchnorm/sub;sequential/conv1d/Conv1D f4 [32]
0.07943979 0.001458277 -0.020104192 0.0057518985 -0.058444787 0.045067225 0.025688875 -0.028426345
0.018034328 -0.027093926 0.005551683 0.021254143 0.034562796 -0.004210271 -0.03141906 -0.019262644
0.05418075 0.014288072 0.04957555 0.00974153 -0.06026054 -0.014603759 -0.029881382 0.044919524
-0.035468124 0.011256021 -0.005977381 -0.0014533065 -0.015987258 0.030791733 0.009741171 -0.0055156834
00000000: 54b1 a23d a823 bf3a 8cb1 a4bc 6c7a bc3b
00000010: cd63 6fbd 6998 383d 7a71 d23c 5ede e8bc
00000020: babc 933c 15f4 ddbc e4ea b53b 2b1d ae3c
00000030: b891 0d3d 50f6 89bb 46b1 00bd b1cc 9dbc
00000040: a2ec 5d3d 8418 6a3c bb0f 4b3d f09a 1f3c
00000050: c2d3 76bd 9b44 6fbc cdc9 f4bc 89fd 373d
00000060: 0647 11bd 2d6b 383c e8dd c3bb e07c beba
00000070: b6f7 82bc f23e fc3c 6f99 1f3c e8bc b4bb

sequential/activation_1/Relu;sequential/batch_normalization_1/batchnorm/add_1;sequential/conv1d_1/Conv1D/Squeeze;sequential/batch_normalization_1/batchnorm/mul_1;sequential/conv1d_1/BiasAdd;sequential/conv1d_1/BiasAdd/ReadVariableOp;sequential/batch_normalization_1/batchnorm/mul;sequential/batch_normalization_1/batchnorm/sub;sequential/conv1d_1/Conv1D f4 [64]
0.086372055 0.52757215 0.19830108 -0.44416234 -0.40199023 0.5522053 0.37020338 -0.19860792
0.13529405 -0.41634053 -0.43227088 0.28916654 -0.17144111 -0.3354588 -0.535561 0.5280925
0.23984927 -0.6030098 -0.6297955 -0.04165218 0.5370633 0.13481824 0.05479705 -0.26424402
0.023289502 0.15805227 -0.10639128 -0.019785145 -0.4380325 0.4686339 -0.1779474 0.3897193
-0.15948172 -0.2740188 -0.21115938 -0.6984899 0.085191205 -0.48268193 -0.48726416 0.5985657
0.0006679888 0.22540654 0.56413305 -0.045637153 -0.4608256 0.13318807 -0.08633768 -0.53366584
-0.18295532 -0.14448316 -0.5002507 -0.34397998 0.5534226 -0.5406471 0.36426342 -0.2638237
0.43620503 0.1710125 0.16573639 0.54336655 -0.4795162 0.1295559 0.17954527 0.6385319
00000000: d5e3 b03d f80e 073f 700f 4b3e 3f69 e3be
00000010: aad1 cdbe 545d 0d3f 4c8b bd3e e05f 4bbe
00000020: 868a 0a3e 962a d5be 9c52 ddbe a30d 943e
00000030: 428e 2fbe 41c1 abbe 871a 09bf 1231 073f
00000040: 0c9b 753e da5e 1abf 473a 21bf 7a9b 2abd
00000050: fb7c 093f cb0d 0a3e df72 603d fe4a 87be
00000060: a0c9 be3c 74d8 213e ace3 d9bd 7514 a2bc
00000070: cc45 e0be c8f0 ef3e d837 36be 4a89 c73e
00000080: 2d4f 23be 314c 8cbe 2a3a 58be 3cd0 32bf
00000090: ba78 ae3d 1622 f7be b07a f9be 9a3b 193f
000000a0: f81b 2f3a f9d0 663e 066b 103f 06ee 3abd
000000b0: 55f1 ebbe 7462 083e cfd1 b0bd 539e 08bf
000000c0: a458 3bbe 65f3 13be 6e10 00bf 251e b0be
000000d0: 1aad 0d3f d967 0abf bc80 ba3e e613 87be
000000e0: 4456 df3e e71d 2f3e cdb6 293e 121a 0b3f
000000f0: 2683 f5be 4daa 043e b7da 373e d476 233f

sequential/batch_normalization/batchnorm/mul_1;sequential/conv1d/Conv1D/Squeeze;sequential/conv1d/BiasAdd;sequential/conv1d/BiasAdd/ReadVariableOp;sequential/batch_normalization/batchnorm/mul;sequential/conv1d/Conv1D f4 [32, 1, 5, 1]
-0.7964201 -0.89699614 0.9250388 0.5412321 0.24976626 -0.24979994 -0.08716334 -0.49892768
0.3849341 -0.6514003 0.93325406 -0.68196505 0.66867006 -1.3369739 0.56548876 0.53709817
0.058833454 0.2273177 0.048865467 0.28564242 0.31331462 1.1348255 -0.79229593 0.39736184
-0.9465764 -0.6520365 0.9115966 -0.42681023 0.16259187 0.8059233 0.5412771 -0.9547888
-0.35584414 -0.7268657 0.9862994 0.61202663 0.060155917 0.057109226 0.60395294 -0.29058138
0.12329196 -0.057224862 0.46549594 0.25492877 0.34879363 0.77536553 -0.962409 0.15201679
0.2723007 -0.9678098 0.5754373 0.47736034 -0.326626 -0.9235712 0.96879303 -0.78008777
0.642901 0.68509287 0.4076314 -0.23048265 -0.77169937 0.45570135 -1.0505601 1.3339863
-0.0010350574 -0.15817769 -0.141642 -0.22248684 -0.34730682 -0.28210607 0.17901978 -0.17385757
0.4038619 0.28644747 0.43537763 -0.16406961 -0.38093203 -0.067275375 -0.46522328 -0.06676961
0.49189952 -1.0490794 0.16678907 -0.53645617 1.3153031 0.3125724 -0.6533549 -0.098721325
-0.49778545 -0.1104372 -0.6733419 -0.38793373 0.26397106 0.33161402 0.9651777 -0.6334758
-0.3226605 -0.2203173 0.042157777 0.011077404 0.6039857 0.22104329 0.9692008 -0.7209981
-0.903805 0.62906986 0.35929382 0.7010916 -0.5699277 -0.3783084 -0.771659 -0.20059678
-0.34520465 0.022586688 0.30545437 0.7998273 0.53312653 -0.4361303 -0.41055024 0.43082118
-0.28757975 1.1454159 0.5320389 -0.42050415 -0.8686544 0.18475465 0.44727197 -0.19337514
0.13287656 0.57011986 0.5288087 -0.0659944 0.6757279 0.38530657 -0.61571497 -0.72006536
0.57266945 -1.0029405 1.0441257 -0.5259957 0.6775595 -0.88899106 -0.7792481 0.02392339
0.25592998 -0.10136401 -0.27631098 0.7970346 -0.31335393 0.84797966 0.39853102 0.32639247
0.4018322 0.16554177 -0.2103166 -0.124521144 -1.1053592 0.96324044 0.9923688 -0.8939979
00000000: 30e2 4bbf 8aa1 65bf 58cf 6c3f 308e 0a3f
00000010: bac2 7f3e 8ecb 7fbe b182 b2bd 7373 ffbe
00000020: 1516 c53e 2cc2 26bf bde9 6e3f 4395 2ebf
00000030: f62d 2b3f f621 abbf dfc3 103f 447f 093f
00000040: 59fb 703d f9c5 683e 2827 483d b93f 923e
00000050: c66a a03e f641 913f e8d3 4abf 0373 cb3e
00000060: d552 72bf ddeb 26bf 655e 693f df86 dabe
00000070: 7c7e 263e fd50 4e3f 2391 0a3f 0a6d 74bf
00000080: 3431 b6be df13 3abf 1e7e 7c3f c7ad 1c3f
00000090: 0d66 763d 5deb 693d a99c 1a3f 15c7 94be
000000a0: 7f80 fc3d 9e64 6abd 7c55 ee3e 0686 823e
000000b0: 1495 b23e 5b7e 463f 7060 76bf 4aaa 1b3e
000000c0: ff6a 8b3e 62c2 77bf dc4f 133f 9368 f43e
000000d0: 863b a7be 2a6f 6cbf d202 783f d5b3 47bf
000000e0: 2995 243f 3f62 2f3f 10b5 d03e a503 6cbe
000000f0: 178e 45bf b051 e93e c178 86bf 10c0 aa3f
00000100: c3aa 87ba 55f9 21be 9a0a 11be 97d3 63be
00000110: 33d2 b1be 3570 90be f650 373e b807 32be
00000120: fdc6 ce3e 3ea9 923e d1e9 de3e dd01 28be
00000130: 8609 c3be acc7 89bd bf31 eebe 81be 88bd
00000140: 41da fb3e 3c48 86bf c1ca 2a3e 3155 09bf
00000150: da5b a83f 7d09 a03e 4442 27bf 682e cabd
00000160: bcdd febe e62c e2bd 2260 2cbf 409f c6be
00000170: 3727 873e 50c9 a93e e315 773f 782b 22bf
00000180: c233 a5be dc9a 61be a2ad 2c3d 007e 353c
00000190: cf9e 1a3f 2c59 623e 8b1d 783f 5593 38bf
000001a0: c45f 67bf b90a 213f 5cf5 b73e bd7a 333f
000001b0: c8e6 11bf a3b1 c1be 728b 45bf 3e69 4dbe
000001c0: aabe b0be b807 b93c 8464 9c3e 7bc1 4c3f
000001d0: fb7a 083f 784c dfbe a433 d2be 9894 dc3e
000001e0: a73d 93be fd9c 923f b433 083f 524c d7be
000001f0: 2260 5ebf 5330 3d3e d500 e53e 2204 46be
00000200: cb10 083e 60f3 113f 0260 073f 1228 87bd
00000210: 81fc 2c3f e746 c53e 7f9f 1dbf 3456 38bf
00000220: 779a 123f 5b60 80bf e9a5 853f a7a7 06bf
00000230: 8a74 2d3f eb94 63bf ce7c 47bf fcfa c33c
00000240: 4109 833e ef97 cfbd a278 8dbe 760a 4c3f
00000250: ed6f a0be 3215 593f 420c cc3e ea1c a73e
00000260: f3bc cd3e c883 293e 3c5d 57be f104 ffbd
00000270: 697c 8dbf ed96 763f e20b 7e3f 0cdd 64bf

sequential/batch_normalization_1/batchnorm/mul_1;sequential/conv1d_1/Conv1D/Squeeze;sequential/conv1d_1/BiasAdd;sequential/conv1d_1/BiasAdd/ReadVariableOp;sequential/batch_normalization_1/batchnorm/mul;sequential/conv1d_1/Conv1D i1 [64, 1, 5, 32]
-33 106 120 98 41 31 75 -113
0 29 9 10 -69 30 98 78
7 58 22 -46 40 -67 84 -54
-78 -41 -29 -73 -33 90 -49 123
-60 111 -19 52 2 -103 -13 -40
83 -23 103 -127 115 -9 -83 -101
86 -85 -49 91 12 59 -59 -61
20 33 46 119 -40 48 -28 28
-1 -105 -99 8 73 -39 97 2
111 78 -71 -65 49 4 35 -17
-74 -82 -53 80 -11 88 -85 112
-26 -106 19 -56 -12 -13 2 55
2 36 -50 -111 28 -79 -6 -108
15 119 44 109 -89 -59 -21 94
-7 -64 25 53 24 105 14 -77
-105 -33 -86 -60 98 3 -56 -8
-70 -96 19 -121 -64 -40 4 8
-74 44 7 -27 108 26 -95 -41
25 -99 67 -58 -70 -87 -20 -43
10 117 92 -42 -49 101 110 118
-28 47 79 -114 -46 -63 18 -41
25 -111 -116 -57 17 6 -31 -23
118 -17 -4 -118 45 -10 -46 -14
-116 107 2 -47 51 -97 82 -100
70 106 -83 -81 49 -79 35 45
-126 94 71 -31 -33 -82 38 24
-34 -92 -15 -79 68 79 -107 69
77 -122 -79 -44 11 -37 -91 5
-15 -40 35 -10 86 -98 -48 -112
-100 82 -43 -23 -16 107 -65 -80
-83 121 86 -126 -84 103 104 77
44 125 60 32 97 64 -109 -77
00000000: df6a 7862 291f 4b8f 001d 090a bb1e 624e
00000010: 073a 16d2 28bd 54ca b2d7 e3b7 df5a cf7b
00000020: c46f ed34 0299 f3d8 53e9 6781 73f7 ad9b
00000030: 56ab cf5b 0c3b c5c3 1421 2e77 d830 e41c
00000040: ff97 9d08 49d9 6102 6f4e b9bf 3104 23ef
00000050: b6ae cb50 f558 ab70 e696 13c8 f4f3 0237
00000060: 0224 ce91 1cb1 fa94 0f77 2c6d a7c5 eb5e
00000070: f9c0 1935 1869 0eb3 97df aac4 6203 c8f8
00000080: baa0 1387 c0d8 0408 b62c 07e5 6c1a a1d7
00000090: 199d 43c6 baa9 ecd5 0a75 5cd6 cf65 6e76
000000a0: e42f 4f8e d2c1 12d7 1991 8cc7 1106 e1e9
000000b0: 76ef fc8a 2df6 d2f2 8c6b 02d1 339f 529c
000000c0: 466a adaf 31b1 232d 825e 47e1 dfae 2618
000000d0: dea4 f1b1 444f 9545 4d86 b1d4 0bdb a505
000000e0: f1d8 23f6 569e d090 9c52 d5e9 f06b bfb0
000000f0: ad79 5682 ac67 684d 2c7d 3c20 6140 93b3

sequential/batch_normalization_2/batchnorm/mul_1 i1 [32, 64] scale=0.038391933 zero_point=0
0.38391933 2.9945707 2.956179 -1.5740693 -2.0731645 2.4570837 0.6142709 -2.1499481
0.53748703 -3.1865304 2.4570837 -0.15356773 3.493666 2.6490433 2.4186919 -3.37849
-2.1883402 3.1481385 1.4972854 0.7294467 -2.7642193 -0.53748703 2.802611 -0.9981903
1.4205015 -2.0731645 3.6088417 2.841003 -2.6490433 3.6088417 -3.3400981 -2.879395
-1.689245 -2.841003 1.0365822 0.26874352 -1.8428128 0.6526629 1.1901499 0.6910548
3.1865304 -2.4954755 0.26874352 -0.038391933 0.30713546 0.30713546 -1.689245 -1.5356773
-2.4954755 -1.5740693 -1.8044208 2.5338676 -0.26874352 2.9945707 -0.6526629 1.8044208
-1.9963806 -2.4570837 -1.8428128 -2.6874354 -0.26874352 -0.1151758 -2.5722594 1.3821096
-0.4607032 -1.1901499 1.8044208 0.30713546 1.7660289 -0.26874352 -1.6508532 0.15356773
0.19195966 0.26874352 1.689245 -1.2669338 1.7660289 1.3821096 -0.076783866 -0.30713546
-0.76783866 1.5356773 0.95979834 1.7660289 -1.9195967 -0.3455274 -2.0347724 -1.9195967
-1.1901499 -1.7276369 0.1151758 -1.2285419 -0.8062306 1.9579886 0.53748703 2.1499481
0.038391933 -0.15356773 -0.2303516 0.6526629 2.1115563 0.9981903 0.6142709 0.038391933
2.1883402 -1.8044208 2.0347724 -1.9579886 -0.88301444 0.6526629 0.6142709 0.076783866
-0.2303516 1.9195967 -0.6910548 -1.0749741 1.4205015 -1.4972854 0.6910548 -0.53748703
-1.9195967 -1.2669338 -0.76783866 0.1151758 1.113366 0.30713546 0.4607032 0.1151758
-0.95979834 1.5356773 -1.689245 -4.645424 3.1865304 0.9981903 -0.53748703 0.8446225
3.2249224 3.8008013 3.5320578 1.2285419 -0.88301444 -3.1481385 -1.7276369 4.4150724
4.607032 -3.3017063 -1.0365822 -0.6142709 -1.0749741 -0.49909514 0.95979834 -1.8812047
2.1115563 2.6490433 2.341908 1.8812047 3.5704498 -0.19195966 -0.42231125 -1.8428128
4.146329 -1.9579886 -1.7276369 -0.038391933 -2.9177868 1.9963806 0.38391933 3.5320578
-0.9981903 0.8062306 -3.37849 1.6508532 -2.7258272 -1.8044208 2.341908 0.8446225
0.7294467 3.8391933 -0.6910548 3.416882 0.88301444 -0.4607032 -3.4552739 -4.3766804
-3.6856256 -1.7276369 3.416882 -1.6124612 2.226732 -3.9927611 2.1883402 0.7294467
0.9214064 -0.076783866 -1.7660289 1.4972854 -3.8775852 -3.416882 -1.4972854 -2.879395
1.0749741 0.4607032 -1.2285419 1.9195967 3.3017063 -2.6106515 2.5338676 2.6106515
-3.6472337 -2.1115563 2.0731645 0.26874352 2.802611 3.6088417 2.1499481 3.493666
-2.6490433 2.5338676 1.4205015 2.226732 3.3017063 -2.5338676 0.42231125 3.8391933
-1.8044208 3.3017063 -1.3437177 -1.2669338 2.226732 -1.9963806 0.6142709 0.6526629
0.575879 -1.0749741 0.9214064 -0.4607032 3.0329628 1.3821096 -3.6088417 2.6490433
-2.5722594 -1.113366 0.53748703 1.4588934 -0.8062306 1.7276369 1.4588934 -2.1115563
-1.4588934 0.8062306 1.4972854 2.5722594 -0.42231125 -2.956179 -3.5704498 -3.0329628
00000000: 0a4e 4dd7 ca40 10c8 0ead 40fc 5b45 3fa8
00000010: c752 2713 b8f2 49e6 25ca 5e4a bb5e a9b5
00000020: d4b6 1b07 d011 1f12 53bf 07ff 0808 d4d8
00000030: bfd7 d142 f94e ef2f ccc0 d0ba f9fd bd24
00000040: f4e1 2f08 2ef9 d504 0507 2cdf 2e24 fef8
00000050: ec28 192e cef7 cbce e1d3 03e0 eb33 0e38
00000060: 01fc fa11 371a 1001 39d1 35cd e911 1002
00000070: fa32 eee4 25d9 12f2 cedf ec03 1d08 0c03
00000080: e728 d487 531a f216 5463 5c20 e9ae d373
00000090: 78aa e5f0 e4f3 19cf 3745 3d31 5dfb f5d0
000000a0: 6ccd d3ff b434 0a5c e615 a82b b9d1 3d16
000000b0: 1364 ee59 17f4 a68e a0d3 59d6 3a98 3913
000000c0: 18fe d227 9ba7 d9b5 1c0c e032 56bc 4244
000000d0: a1c9 3607 495e 385b bb42 253a 56be 0b64
000000e0: d156 dddf 3acc 1011 0fe4 18f4 4f24 a245
000000f0: bde3 0e26 eb2d 26c9 da15 2743 f5b3 a3b1
